
[34m[1mwandb[39m[22m: [33mWARNING[39m Calling run.save without any arguments is deprecated.Changes to attributes are automatically persisted.
----------------------------------------------------------------------------------------------------------
                      Parent Layers       Layer (type)         Input Shape         Param #     Tr. Param #
==========================================================================================================
            DynamicReductionNetwork           Linear-1          [38400, 5]             192             192
            DynamicReductionNetwork              ELU-2         [38400, 32]               0               0
            DynamicReductionNetwork           Linear-3         [38400, 32]           2,112           2,112
            DynamicReductionNetwork              ELU-4         [38400, 64]               0               0
            DynamicReductionNetwork           Linear-5         [38400, 64]           4,160           4,160
            DynamicReductionNetwork              ELU-6         [38400, 64]               0               0
   DynamicReductionNetwork/EdgeConv           Linear-7       [543174, 128]          12,384          12,384
   DynamicReductionNetwork/EdgeConv      BatchNorm1d-8        [543174, 96]             192             192
   DynamicReductionNetwork/EdgeConv              ELU-9        [543174, 96]               0               0
   DynamicReductionNetwork/EdgeConv          Linear-10        [543174, 96]           6,208           6,208
   DynamicReductionNetwork/EdgeConv     BatchNorm1d-11        [543174, 64]             128             128
   DynamicReductionNetwork/EdgeConv             ELU-12        [543174, 64]               0               0
   DynamicReductionNetwork/EdgeConv          Linear-13       [359584, 128]          12,384          12,384
   DynamicReductionNetwork/EdgeConv     BatchNorm1d-14        [359584, 96]             192             192
   DynamicReductionNetwork/EdgeConv             ELU-15        [359584, 96]               0               0
   DynamicReductionNetwork/EdgeConv          Linear-16        [359584, 96]           6,208           6,208
   DynamicReductionNetwork/EdgeConv     BatchNorm1d-17        [359584, 64]             128             128
   DynamicReductionNetwork/EdgeConv             ELU-18        [359584, 64]               0               0
            DynamicReductionNetwork          Linear-19           [512, 64]           4,160           4,160
            DynamicReductionNetwork     BatchNorm1d-20           [512, 64]             128             128
            DynamicReductionNetwork             ELU-21           [512, 64]               0               0
            DynamicReductionNetwork          Linear-22           [512, 64]           2,080           2,080
            DynamicReductionNetwork             ELU-23           [512, 32]               0               0
            DynamicReductionNetwork          Linear-24           [512, 32]             330             330
==========================================================================================================
Total params: 50,986
Trainable params: 50,986
Non-trainable params: 0
----------------------------------------------------------------------------------------------------------
  0%|                                                  | 0/128 [00:00<?, ?it/s]

  1%|â–Ž                                         | 1/128 [00:13<28:20, 13.39s/it]
…
