
[34m[1mwandb[39m[22m: [33mWARNING[39m Calling run.save without any arguments is deprecated.Changes to attributes are automatically persisted.
----------------------------------------------------------------------------------------------------------
                      Parent Layers       Layer (type)         Input Shape         Param #     Tr. Param #
==========================================================================================================
            DynamicReductionNetwork           Linear-1          [38400, 5]             192             192
            DynamicReductionNetwork              ELU-2         [38400, 32]               0               0
            DynamicReductionNetwork           Linear-3         [38400, 32]           2,112           2,112
            DynamicReductionNetwork              ELU-4         [38400, 64]               0               0
            DynamicReductionNetwork           Linear-5         [38400, 64]           4,160           4,160
            DynamicReductionNetwork              ELU-6         [38400, 64]               0               0
   DynamicReductionNetwork/EdgeConv           Linear-7       [304746, 128]          12,384          12,384
   DynamicReductionNetwork/EdgeConv      BatchNorm1d-8        [304746, 96]             192             192
   DynamicReductionNetwork/EdgeConv              ELU-9        [304746, 96]               0               0
   DynamicReductionNetwork/EdgeConv          Linear-10        [304746, 96]           6,208           6,208
   DynamicReductionNetwork/EdgeConv     BatchNorm1d-11        [304746, 64]             128             128
   DynamicReductionNetwork/EdgeConv             ELU-12        [304746, 64]               0               0
   DynamicReductionNetwork/EdgeConv          Linear-13       [236692, 128]          12,384          12,384
   DynamicReductionNetwork/EdgeConv     BatchNorm1d-14        [236692, 96]             192             192
   DynamicReductionNetwork/EdgeConv             ELU-15        [236692, 96]               0               0
   DynamicReductionNetwork/EdgeConv          Linear-16        [236692, 96]           6,208           6,208
   DynamicReductionNetwork/EdgeConv     BatchNorm1d-17        [236692, 64]             128             128
   DynamicReductionNetwork/EdgeConv             ELU-18        [236692, 64]               0               0
            DynamicReductionNetwork          Linear-19           [512, 64]           4,160           4,160
            DynamicReductionNetwork     BatchNorm1d-20           [512, 64]             128             128
            DynamicReductionNetwork             ELU-21           [512, 64]               0               0
            DynamicReductionNetwork          Linear-22           [512, 64]           2,080           2,080
            DynamicReductionNetwork             ELU-23           [512, 32]               0               0
            DynamicReductionNetwork          Linear-24           [512, 32]             330             330
==========================================================================================================
Total params: 50,986
Trainable params: 50,986
Non-trainable params: 0
----------------------------------------------------------------------------------------------------------

  1%|▏                             | 1/128 [00:20<43:29, 20.55s/it]

  2%|▍                             | 2/128 [00:37<38:48, 18.48s/it]
…
