
[34m[1mwandb[39m[22m: [33mWARNING[39m Calling run.save without any arguments is deprecated.Changes to attributes are automatically persisted.
-----------------------------------------------------------------------------------------------------
                 Parent Layers       Layer (type)         Input Shape         Param #     Tr. Param #
=====================================================================================================
   GMMNet/GMMConvLayer/GMMConv           Linear-1          [38400, 1]              64              64
           GMMNet/GMMConvLayer      BatchNorm1d-2         [38400, 64]             128             128
           GMMNet/GMMConvLayer        LeakyReLU-3         [38400, 64]               0               0
   GMMNet/GMMConvLayer/GMMConv           Linear-4         [38400, 64]           4,096           4,096
           GMMNet/GMMConvLayer      BatchNorm1d-5         [38400, 64]             128             128
           GMMNet/GMMConvLayer        LeakyReLU-6         [38400, 64]               0               0
   GMMNet/GMMConvLayer/GMMConv           Linear-7         [38400, 64]           4,096           4,096
           GMMNet/GMMConvLayer      BatchNorm1d-8         [38400, 64]             128             128
           GMMNet/GMMConvLayer        LeakyReLU-9         [38400, 64]               0               0
   GMMNet/GMMConvLayer/GMMConv          Linear-10         [38400, 64]           4,096           4,096
           GMMNet/GMMConvLayer     BatchNorm1d-11         [38400, 64]             128             128
           GMMNet/GMMConvLayer       LeakyReLU-12         [38400, 64]               0               0
                        GMMNet          Linear-13          [512, 256]          16,448          16,448
                        GMMNet     BatchNorm1d-14           [512, 64]             128             128
                        GMMNet            ReLU-15           [512, 64]               0               0
                        GMMNet          Linear-16           [512, 64]             650             650
=====================================================================================================
Total params: 30,090
Trainable params: 30,090
Non-trainable params: 0
-----------------------------------------------------------------------------------------------------
  0%|                                                                       | 0/128 [00:00<?, ?it/s]

  1%|â–                                                              | 1/128 [00:25<54:23, 25.70s/it]
…
