…
  0%|                                                                                                                                                                                                | 0/128 [00:00<?, ?it/s]
----------------------------------------------------------------------------------------------------------
                      Parent Layers       Layer (type)         Input Shape         Param #     Tr. Param #
==========================================================================================================
            DynamicReductionNetwork           Linear-1          [38400, 5]             384             384
            DynamicReductionNetwork              ELU-2         [38400, 64]               0               0
            DynamicReductionNetwork           Linear-3         [38400, 64]           8,320           8,320
            DynamicReductionNetwork              ELU-4        [38400, 128]               0               0
            DynamicReductionNetwork           Linear-5        [38400, 128]          16,512          16,512
            DynamicReductionNetwork              ELU-6        [38400, 128]               0               0
   DynamicReductionNetwork/EdgeConv           Linear-7       [304874, 256]          49,344          49,344
   DynamicReductionNetwork/EdgeConv      BatchNorm1d-8       [304874, 192]             384             384
   DynamicReductionNetwork/EdgeConv              ELU-9       [304874, 192]               0               0
   DynamicReductionNetwork/EdgeConv          Linear-10       [304874, 192]          24,704          24,704
   DynamicReductionNetwork/EdgeConv     BatchNorm1d-11       [304874, 128]             256             256
   DynamicReductionNetwork/EdgeConv             ELU-12       [304874, 128]               0               0
   DynamicReductionNetwork/EdgeConv          Linear-13       [237660, 256]          49,344          49,344
   DynamicReductionNetwork/EdgeConv     BatchNorm1d-14       [237660, 192]             384             384
   DynamicReductionNetwork/EdgeConv             ELU-15       [237660, 192]               0               0
   DynamicReductionNetwork/EdgeConv          Linear-16       [237660, 192]          24,704          24,704
   DynamicReductionNetwork/EdgeConv     BatchNorm1d-17       [237660, 128]             256             256
   DynamicReductionNetwork/EdgeConv             ELU-18       [237660, 128]               0               0
            DynamicReductionNetwork          Linear-19          [512, 128]          16,512          16,512
            DynamicReductionNetwork     BatchNorm1d-20          [512, 128]             256             256
            DynamicReductionNetwork             ELU-21          [512, 128]               0               0
            DynamicReductionNetwork          Linear-22          [512, 128]           8,256           8,256
            DynamicReductionNetwork             ELU-23           [512, 64]               0               0
            DynamicReductionNetwork          Linear-24           [512, 64]             650             650
==========================================================================================================
Total params: 200,266
Trainable params: 200,266
Non-trainable params: 0

  1%|â–ˆâ–                                                                                                                                                                                      | 1/128 [00:13<29:18, 13.84s/it]
…
