…
   HGNN/FeatureEmbedding        Embedding-3              [1486]              16              16
   HGNN/FeatureEmbedding        Embedding-4              [1486]              16              16
   HGNN/FeatureEmbedding        Embedding-5              [1486]               4               4
   HGNN/FeatureEmbedding        Embedding-6              [1486]               4               4
   HGNN/FeatureEmbedding        Embedding-7              [1486]              16              16
   HGNN/FeatureEmbedding        Embedding-8              [1486]               9               9
   HGNN/GATLayer/GATConv           Linear-9          [1486, 39]          19,968          19,968
           HGNN/GATLayer     BatchNorm1d-10         [1486, 512]           1,024           1,024
           HGNN/GATLayer       LeakyReLU-11         [1486, 512]               0               0
   HGNN/GATLayer/GATConv          Linear-12         [1486, 512]         262,144         262,144
           HGNN/GATLayer     BatchNorm1d-13         [1486, 512]           1,024           1,024
           HGNN/GATLayer       LeakyReLU-14         [1486, 512]               0               0
   HGNN/GATLayer/GATConv          Linear-15         [1486, 512]         262,144         262,144
           HGNN/GATLayer     BatchNorm1d-16         [1486, 512]           1,024           1,024
           HGNN/GATLayer       LeakyReLU-17         [1486, 512]               0               0
   HGNN/GATLayer/GATConv          Linear-18         [1486, 512]         262,144         262,144
           HGNN/GATLayer     BatchNorm1d-19         [1486, 512]           1,024           1,024
           HGNN/GATLayer       LeakyReLU-20         [1486, 512]               0               0
                    HGNN          Linear-21          [64, 2048]       1,049,088       1,049,088
                    HGNN     BatchNorm1d-22           [64, 512]           1,024           1,024
                    HGNN            ReLU-23           [64, 512]               0               0
                    HGNN          Linear-24           [64, 512]             513             513
===============================================================================================
Total params: 1,861,260
Trainable params: 1,861,260
Non-trainable params: 0
-----------------------------------------------------------------------------------------------
training process:   0%|          | 0/128 [00:00<?, ?it/s]# iter :   1 train_loss : 0.333, valid_loss : 0.390, best_loss : 0.390
…
